jsb_gym/logs/RL/Dog/Dog500.pth (torch, 79681 bytes, 11 tensors)

actor.0.weight f4 [128, 8]
000000 b4 89 59 bb 5a bb c9 bc 1a d2 eb bd a9 6f 82 3d
       -0.003319365 -0.024625469 -0.11514683 0.06368954
000010 2d 48 8e 3d ba af 9f be 4f 3a d0 bd dd 77 9c bc
       0.0694736 -0.31188756 -0.101673715 -0.019100124
000020 16 5a 23 be 10 52 8c 3e 3c cd 8d be 63 0b 31 bd
       -0.15952334 0.2740636 -0.27695644 -0.04322375
000030 4f 71 d3 bd 20 7c 89 3e 9b eb 78 3e 6f 87 91 be
       -0.10324346 0.26852512 0.24308626 -0.2842364
000040 e8 76 db bd ec d7 83 be 33 b3 ae be fd 2c b2 be
       -0.10716039 -0.25750673 -0.34121093 -0.34799948
000050 6b 5e 7b be 02 77 7c 3c 29 ee a3 3e 07 b9 52 be
       -0.24547736 0.015409233 0.3201764 -0.20578395
000060 3e 30 6b be f4 24 04 bd 46 cc 20 be 39 79 12 be
       -0.22967622 -0.032261804 -0.15702924 -0.14304055
000070 ec 76 29 be 90 82 30 bd d5 3c 8c be 54 0c ac 3e
       -0.16549271 -0.043093264 -0.2739016 0.33603156
000080 fd 01 8b 3e a3 49 d1 3d 2d 90 9b bd bd 5d a8 be
       0.27149954 0.10219123 -0.07595859 -0.32884017
000090 ce 72 8c 3e 52 ff e3 bd db 4d 6a bd 0b 34 13 3e
       0.2743134 -0.11132683 -0.057203155 0.14375322
0000a0 82 83 11 3e 7d 35 85 3d 03 7e 8c 39 35 ab b1 3d
       0.14210322 0.06504343 0.00026796767 0.08675233
0000b0 93 cb 14 3e f5 d4 30 3e 4d 41 01 be 75 5e 16 3e
       0.14530782 0.17268737 -0.12622567 0.1468447
0000c0 31 7c 94 be cf 00 f5 3b 7f 76 b7 bd 0f f4 8b be
       -0.29001 0.007476903 -0.08958148 -0.2733464
0000d0 ec 2f 7e be 3b 15 6e 3e 4a b8 70 be 77 d8 6a be
       -0.24822968 0.23250286 -0.235078 -0.22934137
0000e0 5e 8a 85 3d f2 10 01 be 8b 4c b6 3d f8 f3 74 3e
       0.06520532 -0.1260412 0.08901318 0.23921192
0000f0 6c b8 58 3d 39 64 03 3d 5c 02 a3 be 38 90 33 be
       0.052910253 0.032078 -0.31837738 -0.17535484
000100 7d 61 51 bd ce 3e 5a 3e 71 c2 e4 3d d7 92 61 3d
       -0.051118363 0.2131302 0.11169899 0.055071678
000110 f6 51 8e be af 31 1c be e4 75 ff 3d 9b c1 37 be
       -0.27796906 -0.15253328 0.12473658 -0.17944948
000120 70 35 33 3e e5 67 b0 be 1d 4a 1f 3e ac c7 91 3e
       0.17500854 -0.34454265 0.15555616 0.2847265
000130 df c1 84 3e 62 ad d0 bd 1a 09 b1 3e 66 a3 fa bc
       0.25929162 -0.1018932 0.34577256 -0.030595493
000140 c4 12 2b be b2 0f 84 bd d0 fd b1 3d 82 35 16 bd
       -0.16706377 -0.06448306 0.08690989 -0.036672123
000150 24 c7 83 be b0 14 7a be 37 cb 76 3e b0 4c a9 3e
       -0.2573787 -0.24421954 0.24100958 0.3306632
000160 7a bc 07 3e 71 4d fa 3d 22 0e e3 bb 85 c5 55 be
       0.13255492 0.12221802 -0.006929175 -0.20876129
000170 e7 39 51 3e 17 f8 0b 3e b4 6b dd 3c af 5f 88 be
       0.20432244 0.13668858 0.027028896 -0.266355
000180 35 98 77 bd 27 3b 68 3d 47 f7 a6 bd 0b c3 98 3d
       -0.06044789 0.056697037 -0.08152633 0.074590765
000190 06 90 a8 be 79 a9 fb bd d4 54 cb bd 36 41 ac be
       -0.3292238 -0.12288184 -0.09928289 -0.33643502
0001a0 c4 4e d9 bd b5 2e 1b 3e ff 53 ff bd bb 5b ac be
       -0.106107265 0.15154536 -0.12467193 -0.33663735
0001b0 53 2d 0c 3e 38 2d 4e 3e 67 6e 18 be eb f8 e2 bd
       0.13689165 0.20134437 -0.14885865 -0.110826336
0001c0 db 3b b5 3e 4e 99 74 be 2f ef 77 be 21 92 59 3e
       0.3539723 -0.23886606 -0.24212335 0.2124715
0001d0 31 d3 60 be d0 54 11 3e 00 bc 9b bc ed 38 96 3e
       -0.21955563 0.1419251 -0.019010544 0.29340306
0001e0 06 1e 8e 3e 9c e2 7e 3e 4f 78 21 bd 51 8e 33 be
       0.2775728 0.24891132 -0.039421376 -0.17534758
0001f0 1b 62 10 3e bd 36 d0 bd d4 68 94 be 42 cc 63 be
       0.14099924 -0.101666905 -0.28986228 -0.22245887
000200 f0 48 92 be 57 5c 91 3e 3f 14 12 be d8 88 32 3d
       -0.28571272 0.28390762 -0.14265536 0.043587536
000210 4f e8 c9 bd 5c f1 07 3e 31 50 99 bd ae a3 9b 3e
       -0.098587625 0.13275665 -0.074859984 0.30398315
000220 0b a9 7a be 4b b6 6f 3e 41 9a a1 3e 79 16 68 bd
       -0.24478547 0.23409383 0.31563 -0.056662057
000230 89 6d 44 be 80 b5 2b 3e 4d f5 ac be ed 75 f7 3d
       -0.1918241 0.16768456 -0.337809 0.120830394
000240 02 9d a6 3e 12 48 2c 3e 36 08 68 be 06 c4 cf 3d
       0.32541662 0.16824368 -0.22659382 0.101448104
000250 0f 6b a1 3e f5 6d 83 bd 8d f4 9e be d7 c4 a1 3d
       0.31526992 -0.06417457 -0.31045952 0.07898872
000260 a8 a5 8b 3e 7b 2e 67 3d 5c 4f ad 3e 8a 18 8c be
       0.27274823 0.05644081 0.3384961 -0.27362472
000270 88 02 eb bd ea 5d 94 be 15 64 40 bd b5 24 18 3e
       -0.11475092 -0.289779 -0.046970446 0.14857753
000280 59 2a 81 be bd 3c 8b be 84 36 60 bd c8 05 78 be
       -0.2522762 -0.27194777 -0.05473949 -0.24220955
000290 d2 bd 4f 3e 14 0f 55 3e 00 d7 9c be af e8 5c 3c
       0.20287254 0.20806533 -0.30632782 0.0134832105
0002a0 ac aa 10 be 4d be 39 bc 2e e8 b3 3e a0 5f 2c be
       -0.14127606 -0.011336875 0.35138077 -0.16833353
0002b0 6f b0 9c 3d 59 13 07 be 31 4d 0a 3d 6b 1b 65 3d
       0.076508395 -0.13190974 0.03376502 0.05593435
0002c0 d4 74 f9 bd 0b 70 0a be d6 ca c9 bd eb 78 2b be
       -0.12180486 -0.13519304 -0.09853141 -0.16745345
0002d0 56 e6 8d be 5f f5 c0 3c 6c 68 57 be 57 d5 be bc
       -0.27714795 0.023554502 -0.21035928 -0.023295088
0002e0 16 6f 28 3d 30 14 60 3e 37 be b0 be f4 3c 84 be
       0.041121565 0.21882701 -0.34520122 -0.25827754
0002f0 8e 1f 8a be 82 96 e2 3d 46 12 26 3d f0 d9 5c 3d
       -0.269772 0.11063863 0.04054477 0.05391878
000300 97 6e 6a bd 7a 0f c6 3d 5e 47 8a 3e 97 2c 2d 3e
       -0.057234373 0.09670921 0.27007574 0.16911541
000310 ec 82 9e bd 27 ac b8 3d ba f2 64 bd 2d 93 a3 3d
       -0.07739815 0.090172105 -0.055895545 0.07987056
000320 22 30 82 be 8e cb 35 3e b9 65 3e 3e 96 05 ad be
       -0.25427347 0.17753431 0.18593492 -0.33793324
000330 2b 85 02 3d 2f 46 ae 3e 69 ba a4 be 6e b8 92 3d
       0.03186528 0.3403792 -0.3217347 0.071640834
000340 75 a7 23 be 90 c0 18 be 11 91 b2 bd ae 5b fe bd
       -0.15981849 -0.14917207 -0.087190755 -0.1241983
000350 5d 98 94 3e 91 23 0b 3e dd 34 50 3e 12 f3 f3 ba
       0.29022494 0.13587786 0.20332666 -0.0018611869
000360 88 a8 41 be d3 a7 f9 bc d0 5f 7b be 2d 91 17 3e
       -0.18911946 -0.030475533 -0.24548268 0.14801474
000370 c8 59 12 3e 2a b2 b1 be 0e 7f 51 be e0 8a 40 be
       0.14292061 -0.3470624 -0.20458624 -0.18802977
000380 18 80 f0 bd f7 81 77 3d ea 24 ad be 62 35 6c be
       -0.11743182 0.06042668 -0.33817226 -0.23067239
000390 ee 45 ad be dc 60 3e 3e d5 2e 9f be e1 42 1f 3e
       -0.33842415 0.18591636 -0.31090418 0.15552856
0003a0 8e a6 1d be 49 2a b6 3d 52 9b 7c bd b4 ff 33 3e
       -0.15395567 0.08894784 -0.061671562 0.17578012
0003b0 a1 de b0 bd 93 c2 41 3c 50 a7 20 be 62 a4 62 3e
       -0.08636213 0.011826175 -0.15688825 0.2213302
0003c0 ee 43 8e 3d d6 61 74 3d 36 87 b0 3e ea cb 67 be
       0.0694655 0.059663616 0.34478158 -0.22636381
0003d0 33 d3 79 3e 34 2d 2f 3d fa 90 b4 3e 44 7d 93 bd
       0.24396972 0.04276772 0.35266858 -0.07201627
0003e0 a8 a2 5b be f2 dd 0d be 15 74 95 3d b2 26 a2 be
       -0.21448767 -0.13854197 0.072975315 -0.31670147
0003f0 39 af 3b be 82 68 b8 3e e3 39 ac 3c 32 08 a9 3e
       -0.18328561 0.36017233 0.021023696 0.33014065

actor.0.bias f4 [128]
000000 92 17 88 be be 2a 59 be 98 7e 0b be f6 eb 7b be
       -0.26580483 -0.21207711 -0.1362251 -0.2460173
000010 6f 3f 70 3e 7e a4 f6 bd 5a 5a 16 be df 2e 0e 3e
       0.23461698 -0.12043093 -0.14682904 0.13885067
000020 79 4e 0b 3e ee 5d 0a bd 3d 4a a6 3e 2c e8 0a 3e
       0.13604154 -0.033780985 0.32478514 0.13565129
000030 16 62 0e 3e 9d 94 47 3e 8a 79 a5 3d 60 76 26 3e
       0.13904604 0.19490285 0.08079822 0.16256094
000040 07 fa 7a be 88 c6 4c 3e ac 41 a3 be 02 a7 37 3d
       -0.2450944 0.19997609 -0.3188604 0.044837005
000050 4b 51 59 3d 45 3f 1e be 33 93 a2 bd 9b a9 81 3e
       0.053056043 -0.15453823 -0.07938232 0.2532471
000060 13 f2 00 be 61 ff ac 3c 6b b9 b5 3e e4 c3 a2 3e
       -0.12592344 0.021117868 0.35493025 0.31790078
000070 c2 d6 3b bd 2e c6 69 3d fb 5d 00 3e 83 d9 96 be
       -0.045859106 0.057073765 0.1253585 -0.29462823
000080 9c 6e ce bd 9e e3 3f 3d 22 eb 4c be 90 1e 4a 3e
       -0.10079691 0.046847932 -0.20011571 0.19738221
000090 e8 66 7b be 40 15 15 3d 4d b1 92 3e b2 ed 9f be
       -0.24550974 0.03639722 0.28650895 -0.31236035
0000a0 0e 7a a7 3e 25 4c 5f 3e 08 e2 7b be 67 35 51 3d
       0.32710308 0.2180639 -0.24597943 0.05107632
0000b0 83 99 69 bd 3b 93 e1 3d 27 8e c2 bd 71 d9 4f be
       -0.057031166 0.1101441 -0.0949977 -0.20297791
0000c0 97 6c aa 3e 4f 29 c0 bd 15 20 6b 3d ec 12 d5 3c
       0.33285972 -0.09382879 0.057403643 0.02601
0000d0 ba a0 b5 3e 6c f7 a3 be 33 36 69 be f9 ff 73 be
       0.35474187 -0.32024705 -0.22774582 -0.23828115
0000e0 fd ce 70 3e 82 90 dd 3c 90 c7 9c bd 09 b5 98 bd
       0.2351646 0.027046446 -0.07655251 -0.07456405
0000f0 b2 7d 77 be ee 12 8e be 98 d2 1a be 71 c1 75 be
       -0.24169043 -0.27748817 -0.15119398 -0.23999573
000100 dd 77 9b bd 4a 77 a2 3d 6d 24 a8 3e 32 31 b8 3e
       -0.075912215 0.07932909 0.3284029 0.35975033
000110 a8 ea 4e 3e cf dd 96 3e 4e d3 55 be 88 ba 0c be
       0.20206702 0.29466102 -0.20881388 -0.13743031
000120 73 53 96 3e 20 9e b2 bd 36 be 0b bd 1b 0d 86 be
       0.29360542 -0.08721566 -0.034116946 -0.26181874
000130 9c 80 a8 be 5b 89 72 be 11 0e 8f be de 12 8c 3d
       -0.3291062 -0.2368521 -0.2794042 0.06839536
000140 7c b6 28 be 0c e9 28 3d 06 be 98 be 8a d7 b0 3d
       -0.16475862 0.041237876 -0.29832476 0.08634861
000150 d9 f7 03 bd 08 43 06 be 4b a9 0f 3e a3 83 60 3e
       -0.032218788 -0.13111508 0.14029424 0.21925215
000160 ee 76 47 3e 6c 15 20 3d 2b df c2 bd 8c 94 aa be
       0.19478962 0.03908293 -0.09515222 -0.33316457
000170 b0 f1 2a 3e a3 66 d0 bd fb 56 4f 3e c5 dd b2 3e
       0.16693759 -0.101758264 0.20248024 0.34934822
000180 78 05 a1 3e d9 47 91 be fd a7 61 3e 92 3e 35 3e
       0.31449485 -0.28375128 0.22036739 0.1769965
000190 aa 27 9a bc ee 99 3a 3e 88 ec 93 be 17 04 af be
       -0.018817741 0.18222782 -0.28891397 -0.34182808
0001a0 21 a9 ac be a2 5b b2 be 43 98 94 be f3 a5 b5 3e
       -0.33722785 -0.34835535 -0.29022416 0.35478172
0001b0 ec 4f c2 3d 4e 0a 97 3e 82 b1 b9 bd 76 fc af be
       0.094879 0.2950005 -0.0906706 -0.343723
0001c0 74 9e b4 be 90 05 7e be 8e e9 1a 3d 16 31 a7 3e
       -0.3527714 -0.2480681 0.03782039 0.32654637
0001d0 38 52 40 3e 7c 10 7a 3d e6 58 9f 3e 8f 5b 36 be
       0.18781364 0.061050877 0.31122512 -0.17808364
0001e0 43 f1 6a 3e f9 21 43 be 17 cc ad be 72 21 ac be
       0.22943597 -0.19055928 -0.3394477 -0.33619267
0001f0 d3 49 62 bd 91 ae 6b 3e ab 4f 88 3e 84 d3 97 be
       -0.055246186 0.2301581 0.26623282 -0.2965356

actor.2.weight f4 [64, 128]
000000 75 6f 68 3c f7 da c7 bc df f3 0b bd 8e 27 8e bd
       0.01418673 -0.024396403 -0.03416812 -0.06941138
000010 9e e9 b4 bd 57 81 a6 bd ca c0 f7 39 37 cc 71 bd
       -0.088336214 -0.08130138 0.0004725515 -0.059032645
000020 62 38 89 3d 2e 07 a2 3d db 28 29 bd 55 d5 4a 3d
       0.06700207 0.07911526 -0.04129873 0.049519856
000030 db 64 d6 bc 5e a9 87 3d 92 1c bc bc 89 ff 62 bc
       -0.026171139 0.06624101 -0.022962842 -0.01385487
000040 7a 94 76 3d 3d 51 90 3d ff 10 31 bd d2 b6 b3 bd
       0.060200192 0.07046745 -0.0432291 -0.087751046
000050 f7 57 ab 3c ba 3a c6 3c e7 19 39 3d ef 16 aa 3d
       0.020915968 0.024197925 0.045190718 0.083051555
000060 d9 93 37 3c 27 f7 a2 bc 92 78 b1 bc 09 b1 10 bd
       0.011204683 -0.019893242 -0.021663938 -0.035325084
000070 1d cb c1 3d 58 26 50 3c 45 4a 81 bd ec d1 40 bd
       0.09462569 0.012704454 -0.06312994 -0.047075197
000080 77 20 f4 3c c5 77 28 bd 37 65 6e 3d fb 96 71 3d
       0.029800637 -0.041129846 0.058201995 0.058981877
000090 bf fa b1 3b bc b8 be bc 95 f5 20 bd fe a6 e7 bc
       0.0054315026 -0.023281448 -0.039296705 -0.02827787
0000a0 88 06 d9 b8 90 17 15 3d 65 b8 60 bd 88 0a 2a 3d
       -0.00010348583 0.036399424 -0.054863352 0.04151395
0000b0 b3 41 4e bd 13 69 9e 3d 2e 00 58 3b d6 c8 a9 bd
       -0.050355624 0.07734885 0.0032959091 -0.082902595
0000c0 ac cd a0 3c 63 1b c3 bc d7 d5 0c 3b 89 42 91 bd
       0.019629322 -0.02381677 0.0021489763 -0.07092769
0000d0 3f bc fa 3b 2c ce 31 3d 79 ba 4e bd ae 47 89 3d
       0.007651835 0.04340951 -0.050470803 0.06703125
0000e0 2a d2 90 3b 94 2e 96 3d 6c 3d 3b 3d 76 33 43 3c
       0.0044195848 0.07333103 0.045712873 0.011914125
0000f0 86 83 6c 3d a4 2c 83 3b ae e1 a7 3d 3d 3d 01 bc
       0.057742618 0.0040031243 0.08197342 -0.0078881355
000100 87 d3 29 bd 88 0e a1 3d fc 1d 8a bc 8c 2d 89 bc
       -0.041461494 0.078641 -0.01686 -0.016745351
000110 07 76 3a bc aa b0 ac 3d e2 6c dd 3c b0 be e2 3c
       -0.011380679 0.084321335 0.027029458 0.027678818
000120 6d a1 0f bd 93 4e 04 3d 0f 99 96 3c b1 80 7a bc
       -0.035066057 0.032301497 0.01838353 -0.0152894715
000130 0e b1 e7 3c 1b cb 82 3c c5 29 87 bd ab ff ba 3d
       0.028282668 0.015965989 -0.06599764 0.09130796
000140 e4 21 76 bd a0 01 cc bc f7 4b 82 bd 93 16 14 bd
       -0.060090914 -0.024903119 -0.063621454 -0.03615434
000150 c2 6f a9 3d ef a0 a8 3d 1b 80 99 3a 07 a4 89 3d
       0.08273269 0.08233821 0.0011711152 0.06720739
000160 96 e9 ac bd 1d 3e 92 3d 90 8d 43 bc d9 ce 37 3d
       -0.084429905 0.071407534 -0.011935607 0.044875
000170 64 e5 9a bc 7f 05 08 3c 61 db ad 3d 75 a8 7a 3d
       -0.01890821 0.008302092 0.08489109 0.06119581
000180 db 65 bc 3d 9b 45 49 bd 90 32 4f bc ca a2 b8 3d
       0.09199115 -0.049138647 -0.012646332 0.090154245
000190 12 a7 a8 bd ae de 92 3d a7 cb 78 3c d5 cf af bc
       -0.08234991 0.07171379 0.015185273 -0.021461407
0001a0 ca 4e aa bc 96 e1 d7 bc fd f4 48 3d 60 1e 1f bc
       -0.020789523 -0.026352685 0.049061764 -0.009711832
0001b0 35 2c 85 bb f3 fb 24 3c c0 ad 12 3d bb 43 51 bd
       -0.004064108 0.010069835 0.035810232 -0.051089983
0001c0 a9 f6 79 3d 95 34 b0 bd 44 10 8e 3a 67 7b 10 bd
       0.06102625 -0.08603779 0.0010838588 -0.035273936
0001d0 76 0d 5f bd b0 85 03 3d 7e 3d b3 3d fa e8 05 3d
       -0.054456197 0.032109916 0.08751963 0.032692887
0001e0 29 dd a1 bc b8 2e 11 3c 47 cb 7b bc ac 25 3d bd
       -0.019758778 0.008861236 -0.015368289 -0.046178505
0001f0 ec e7 a4 bc 04 6e 16 bd c2 97 22 3d 3b 87 8b bd
       -0.02013012 -0.036726013 0.03969551 -0.068129025
000200 81 cc 23 3d 1c a2 2e 3d 36 4c 93 bc c1 65 a3 3d
       0.039989952 0.04263507 -0.017980676 0.079783924
000210 bc 46 e5 bc fb d8 e7 3c 47 cf 17 bc 21 47 eb 3c
       -0.02798783 0.028301707 -0.009265727 0.02872044
000220 47 c0 3b 3d 50 f4 8c 3d d5 e1 c0 3c c9 ca c2 bd
       0.045837667 0.068825364 0.023545185 -0.095113344
000230 b1 5f a8 3d 4d 6a ba bd d0 db 4b 3c e9 89 7e bd
       0.08221377 -0.091023065 0.012442544 -0.06214324
000240 84 8a 54 bc b4 00 b0 bd 8d e3 a5 3d 9a 99 b6 bd
       -0.012972478 -0.08593884 0.081000425 -0.08916016
000250 3d 3e 12 3d a5 d9 ca bb 5e bc 5e 3b 60 1d 48 3d
       0.035703886 -0.006190496 0.0033986787 0.04885614
000260 be 74 f9 3c be ea 42 3d ee ec 8c bd aa 8e 43 3b
       0.030451175 0.04758715 -0.06881128 0.0029839673
000270 fd 27 9a bb d8 1d 00 bd d5 d3 44 bd 8f 04 41 bd
       -0.004704474 -0.03127846 -0.04805358 -0.047123488
000280 e6 a4 8b bd 44 a4 89 bc d6 46 2a bd 77 db ab 3d
       -0.06818561 -0.01680196 -0.04157146 0.08391469
000290 d7 27 69 bd a4 93 36 3d 56 c9 9a bd a1 00 d7 3b
       -0.05692276 0.044574395 -0.07557933 0.0065613543
0002a0 29 bf 7f 3d 2f de 99 3d 48 62 b7 3d 5f 41 4c 3d
       0.062438164 0.07513081 0.089542925 0.04986703
0002b0 2d 93 ab bc 04 8e 4e bd 32 ff dd 3c 1b 28 b5 3b
       -0.020944202 -0.050428405 0.027099226 0.0055284626
0002c0 1e c6 3e 3a a6 e6 62 3d 4a d5 1b bd cc de e7 3b
       0.00072774466 0.055395745 -0.038045205 0.00707612
0002d0 57 91 07 3d ec 13 fb bc 1b a8 66 bd 9a 4a 19 3d
       0.03309759 -0.030649148 -0.05631266 0.03742466
0002e0 f8 54 55 bc 79 d0 3b bd 92 be 7d bc 47 5f 65 3d
       -0.013020746 -0.045853112 -0.01548733 0.055999067
0002f0 cd 38 00 bd 6d 20 ca 3c be 49 8d bd 0b 2d 6b bd
       -0.03130417 0.024673665 -0.06898831 -0.057416003
000300 77 07 05 bd 01 46 86 3d ef 3e c0 3d 06 9a 14 ba
       -0.032477822 0.06556321 0.09387004 -0.0005668703
000310 61 e9 28 bd 30 83 8e bc 6d 79 f8 bc 48 36 bd bc
       -0.041238192 -0.01739654 -0.030331338 -0.023097172
000320 07 41 fe bc cb f4 f1 bc cf 99 15 bd e1 27 87 bd
       -0.031036867 -0.029535672 -0.036523636 -0.06599403
000330 e5 87 14 3d 59 94 dc bc 9a 1f 97 bd 72 8b ba bd
       0.03626241 -0.026926206 -0.073790744 -0.09108628
000340 81 65 5c 3d 4a 29 ff bc 1c 33 a6 bc 81 06 67 3d
       0.05380774 -0.031147618 -0.020288043 0.056402687
000350 77 70 72 3b 2e 04 76 bd c5 7f 74 3d f5 13 04 3b
       0.0036993304 -0.06006258 0.059692163 0.0020153497
000360 b2 5f 5c 3d fe ba b0 3d 75 3f 8b bd 32 a6 8f 3b
       0.0538022 0.08629416 -0.06799213 0.0043838257
000370 87 9e 53 bd e9 89 a7 3d 72 00 a2 3d e0 84 9f 3d
       -0.051664855 0.08180601 0.07910241 0.07789016
000380 9f c1 54 bc c6 b2 08 bd ca 52 00 bd 13 23 4e 3d
       -0.012985616 -0.033373617 -0.031328954 0.050326418
000390 25 59 8a 3d ec 28 62 3d e6 fe d1 bc 2b 40 a8 3c
       0.06755284 0.055214807 -0.02563424 0.02053841
0003a0 c3 8f ba bd df 86 b1 3a 03 12 b1 3d b0 e6 ab 3d
       -0.091094516 0.0013544223 0.086460136 0.083936095
0003b0 44 0a bc bd c0 7e bb 3d a2 54 64 3c 81 7b 98 bd
       -0.091816455 0.09155035 0.013936194 -0.074454315
0003c0 93 95 7e 3d bc bf 52 bd f2 ab 16 bd 8a fb 8b bd
       0.062154364 -0.051452383 -0.036785074 -0.06835087
0003d0 1e 8c a8 bd 2a 88 b6 3d 62 79 91 bd e8 3c 89 bd
       -0.0822985 0.0891269 -0.0710323 -0.0670107
0003e0 29 5a 0b 3d be 4e 8a 3c 89 c1 0a 3d d5 01 fb 3c
       0.03402153 0.01688325 0.033875976 0.030640522
0003f0 27 d2 19 bb ed 82 19 3d 88 ef 6a 3d 31 c1 25 3d
       -0.0023471208 0.037478376 0.05735734 0.040467445

actor.2.bias f4 [64]
000000 21 71 58 3c 31 c3 8b 3d 15 12 ab bd 66 ae f0 bc
       0.013210566 0.06824339 -0.08353058 -0.029380035
000010 bc 25 37 bd 0a 93 7b 3d 7e 9e 32 3b 3b c7 8c 3c
       -0.04471372 0.061419524 0.0027255113 0.017184844
000020 6b 73 67 3d aa a9 fc 3c e2 d0 a8 bd 8f 35 23 bd
       0.056506556 0.03084262 -0.08242966 -0.039846
000030 e8 e1 e4 3b 8a 6e a8 3d e0 22 67 bd 47 fa ae bd
       0.006984938 0.08224209 -0.056429744 -0.0854383
000040 ce 98 b1 ba 67 62 29 bd 7c dd 5f bc f3 49 74 3a
       -0.0013549568 -0.04135361 -0.013663646 0.00093188806
000050 e3 db 8e bd 43 79 c2 bc 71 da f7 3c f2 bd 77 bd
       -0.06975534 -0.023739463 0.030255528 -0.06048388
000060 2d 8b 08 3d 29 ff 2f 3c ef 41 3d 3c 0c 51 39 3d
       0.033335853 0.010741987 0.011551364 0.045243308
000070 a8 f0 5a bd d4 d1 89 bd 34 98 f3 bc dc 8a 8b bd
       -0.053452164 -0.06729475 -0.029735662 -0.06813595
000080 c0 6a 55 bd ca ef ab bd b3 09 46 bc 72 75 37 bd
       -0.052103758 -0.083953455 -0.012087273 -0.04478974
000090 88 fc 7b bd 64 18 83 3d e3 5b 38 bd df 1e 11 bc
       -0.06152013 0.064011365 -0.045009505 -0.008857458
0000a0 58 f8 37 bd 96 cf 90 bd 07 7a 97 3d ee 10 18 bd
       -0.044914573 -0.07070844 0.07396322 -0.03712552
0000b0 39 3c 32 bc 5c 62 17 3d 19 f0 9a 3d 91 63 98 bb
       -0.010878616 0.036959037 0.07565326 -0.004650541
0000c0 b6 da 20 3d c1 e2 40 bd 55 8f 19 3d fa 85 a0 bc
       0.03927108 -0.04709125 0.037490208 -0.019595135
0000d0 21 fb 8a bd 1a 4e e8 3b e9 03 0e bd 75 1e 20 3c
       -0.0678618 0.0070893886 -0.034671698 0.0097728865
0000e0 1f 92 9a 3c 6d 4b dc 3c b1 35 ee 3c 10 71 01 3d
       0.018868504 0.026891435 0.029078336 0.031601965
0000f0 58 7c b5 bd 27 78 f4 3c 7c 1e 65 3d 59 93 e5 bc
       -0.08861607 0.02984245 0.055937275 -0.028024362

actor.4.weight f4 [2, 64]
000000 7e 94 5d bd 25 08 43 3d fa 46 7b bd 72 c5 6b 3d
       -0.05409669 0.04761519 -0.061346985 0.057561345
000010 6a 10 ac 3d 9c db ca 3d 65 54 81 3d 4b a2 c8 bc
       0.08401568 0.099051684 0.06314925 -0.02449145
000020 98 4d f0 bd 8c 6c 44 3d 42 3f 90 3d 2f 00 95 bb
       -0.1173355 0.04795508 0.070433155 -0.004547141
000030 c4 1b be bd bb 55 10 3d 78 fd f8 bd 6c 1e da 3d
       -0.092826396 0.03523801 -0.1215772 0.10650334
000040 c8 fb f6 bb 77 53 ed 3c b9 62 d8 bd 04 ce b9 bb
       -0.007537339 0.028970463 -0.10565705 -0.005670311
000050 d0 38 f1 3d fd 2a 01 3e 40 c5 85 bc 26 6e 6c bd
       0.11778414 0.12614055 -0.016329408 -0.057722233
000060 7f 28 f7 bd f8 b8 4d bd af ee 68 bc 5d 00 04 3d
       -0.12068271 -0.050225228 -0.014217063 0.03222691
000070 46 5f 93 bb ec 9a b7 bd 5d 31 06 bd a0 8c af bd
       -0.0044974415 -0.08965096 -0.03276192 -0.08571744
000080 e7 54 5a bc 50 1a a1 3d 12 72 f6 3d c2 ce 6e 3b
       -0.013325906 0.07866347 0.12033476 0.0036439155
000090 00 71 00 3e 7f 4d 8f bd 45 c2 b0 3d a0 ce 8d 3d
       0.12543106 -0.06997203 0.08630804 0.06924176
0000a0 bc cd a2 3d b4 d1 ee bb 04 98 6d 3d 8b 6c 0a bd
       0.07949397 -0.007288182 0.0580063 -0.03379492
0000b0 39 52 9c 3d 6e f9 af 3d ef 5c c4 3d 76 31 cd bd
       0.0763287 0.08592497 0.09588038 -0.100191996
0000c0 96 8b 47 bd 9d 23 9f bd 9e 79 a2 3d 4a 27 84 bc
       -0.048717104 -0.077704646 0.07933353 -0.016132016
0000d0 c6 79 47 bd f4 22 76 bd 7d 87 c3 bd 70 97 7d 3d
       -0.048700117 -0.060091928 -0.09547327 0.061912
0000e0 8d e8 e1 3d 41 c7 63 3d 91 fe 8c 3d cf f8 b4 bd
       0.11030684 0.055609945 0.06884492 -0.08836519
0000f0 f3 ec e7 ba 86 c2 cf 3d 6b 86 9e 3c 26 1a 94 bd
       -0.0017694518 0.10144524 0.019351205 -0.0723155
000100 82 94 a1 3b 73 b4 76 bd d9 39 7d bd 14 d0 30 3c
       0.0049310336 -0.060230684 -0.061822746 0.010791797
000110 04 8d ec bd 66 2b aa 3c 82 a7 ea bc 56 03 5d 3d
       -0.11550334 0.020772647 -0.028644327 0.05395826
000120 e8 16 a8 bd 54 a1 e6 bd b7 f6 e2 bc f1 f7 d7 bd
       -0.08207494 -0.1126124 -0.027705533 -0.10545338
000130 35 6f b6 3d 68 02 bc 3d 3d f9 0f 3c 96 69 7e 3d
       0.0890793 0.091801465 0.00878745 0.062112413
000140 cc 1d 9a bd 0d ba b0 bc d2 4e f5 bd 72 e4 3e bb
       -0.075252146 -0.02157309 -0.119779244 -0.0029127863
000150 24 d9 d4 3c ee 42 c2 3d 2f ea 59 3c 71 b1 c2 bd
       0.025982447 0.09485422 0.013300463 -0.095065005
000160 db d7 c3 bd 92 00 d4 3d 5d 1a c8 bc 0a b4 d8 3d
       -0.095626555 0.10351671 -0.024426633 0.10581215
000170 d1 8a ed bd 28 fe f9 bd 56 da ff 3c f0 3a e0 3d
       -0.11598743 -0.122066796 0.03123204 0.109487414
000180 60 8b 9d 3d 5e 4c a9 3d ac f2 db bd 8a c1 b7 3d
       0.07692599 0.08266519 -0.10739645 0.089724615
000190 a3 b2 ca 3c a0 01 5b 3d 02 d5 03 3e 27 0c 95 3d
       0.024743384 0.053468347 0.12874225 0.072777085
0001a0 df 64 df bd d0 fc 15 bd d1 be 5d 3c 43 03 a5 3d
       -0.109079115 -0.036618054 0.013534264 0.08057263
0001b0 b0 e9 ae bd bd 0c f0 bb 0e 9f 94 bd 0b 8f 5d 3d
       -0.08540666 -0.0073257373 -0.072569 0.054091495
0001c0 36 28 17 3d 26 89 dc 3d c1 4d 92 bd 08 c2 92 3d
       0.036903583 0.107683465 -0.07143737 0.07165915
0001d0 ea fe 21 3d 03 95 28 bd 9b e2 08 3e 0b 7f eb 3d
       0.039549746 -0.041157734 0.13367693 0.11498841
0001e0 15 36 a7 bd 9f 64 ba bd ca 03 b1 bd 5a b0 e4 3c
       -0.08164612 -0.09101223 -0.08643301 0.027916122
0001f0 c0 f8 02 3e 06 05 76 3c 58 06 13 bc 70 a4 e8 bd
       0.12790203 0.015015846 -0.00897368 -0.11359489

actor.4.bias f4 [2]
000000 5c 55 78 bd 30 4e 44 bd
       -0.06062828 -0.047926128

critic.0.weight f4 [128, 8]
000000 bd ad 87 3e 34 0b 33 bd ec 56 75 3e d3 0b 9c be
       0.2649974 -0.043711856 0.2395894 -0.3047777
000010 97 70 d5 bd e1 09 f5 3d db b8 7b 3e ba db a7 3e
       -0.104218654 0.11964775 0.24582236 0.32784826
000020 67 4b 62 bc 5b c5 98 be 95 40 68 bd fe e7 6e 3d
       -0.013811923 -0.2983807 -0.056702215 0.058326714
000030 a0 6e 7e 3e 16 d9 02 3e b5 87 8d 3e 1c d9 80 3e
       0.24846888 0.12778124 0.276426 0.2516564
000040 70 97 3a bd 77 82 8a 3c c8 11 92 3e a3 ee a6 3e
       -0.04555458 0.016907914 0.2852919 0.3260394
000050 a2 a4 d1 3d 7c 58 90 be e0 75 4c bd a2 3b aa 3e
       0.10236479 -0.28192508 -0.0499171 0.3324862
000060 6a 3d 23 be 4e 3f 1b 3d b2 1e db 3d e5 43 48 3e
       -0.15941396 0.03790217 0.10699214 0.1955715
000070 0f 29 97 be 8e 3d 33 3e f5 38 02 3e f4 0a 31 be
       -0.29523513 0.1750395 0.1271704 -0.17289335
000080 76 18 9e 3c a2 f6 92 be 2a 37 3c be f5 4b ae bd
       0.019298773 -0.2870379 -0.18380418 -0.085105814
000090 5d a4 96 3d 76 53 bf 3c 3f dd a5 be d9 db 6d be
       0.073555686 0.023355227 -0.3239536 -0.23228396
0000a0 8c b4 93 3e fc 09 25 be ee 14 2c bc 3b f5 e7 3d
       0.28848684 -0.1611709 -0.010503037 0.11326071
0000b0 7f 30 7c 3d 9c 10 b3 be 69 1c 06 3d 50 ff 84 3e
       0.061569687 -0.3497361 0.032741938 0.25976038
0000c0 5f 9a 74 3d 70 86 1d be 91 5b 81 bd 88 81 b2 be
       0.059717532 -0.15383315 -0.06316293 -0.3486445
0000d0 64 b1 91 be 8f 1e ab 3e 9a e5 62 bd 3d 27 79 be
       -0.2845565 0.33421752 -0.055394746 -0.24331374
0000e0 b2 94 0d be 39 d4 20 3e 6f 73 8d be be 2c f4 3d
       -0.13826254 0.15705957 -0.2762713 0.119225964
0000f0 6f 4d 5c 3d f6 ba 92 3c 9b 0d 62 bd 74 f0 84 3e
       0.053784784 0.017911416 -0.055188756 0.259647
000100 a1 93 1f be a4 16 92 be fb 2c 43 be cc 7d 86 be
       -0.1558366 -0.28532898 -0.19060127 -0.2626785
000110 5f b5 23 3d 45 ae e9 3d b5 df f8 bd 91 b6 04 3e
       0.03996789 0.114101924 -0.12152044 0.12960269
000120 26 49 82 3e d8 2c 90 bd 05 d9 a9 be 25 66 67 3e
       0.25446433 -0.07039803 -0.33173385 0.22597559
000130 4e 6d 31 3e 45 0e 77 3c 61 a1 a8 bd 08 12 54 3e
       0.17326853 0.015079086 -0.082339056 0.20710003
000140 ca dc a3 3e ed 54 b3 3d e3 34 53 3e 51 20 80 bd
       0.32004386 0.08756433 0.20625643 -0.06256164
000150 6c 7d 97 3e 9c 38 8f 3e 3c ef a4 3e 62 95 8e 3e
       0.29587877 0.27972877 0.3221377 0.27848345
000160 52 13 ab 3e 85 4c ab 3e f1 78 9f 3e a5 91 7c be
       0.33413178 0.33456817 0.31146958 -0.24664934
000170 13 7f 9d be 0f 16 42 bc d6 cd e1 3d cb 3c 97 3e
       -0.30761012 -0.0118460795 0.11025588 0.2953857
000180 35 7d 66 be 77 0c 2f 3e d6 b6 02 3e 97 5c d7 3d
       -0.225087 0.17094599 0.12765059 0.10515707
000190 70 74 a4 3e a6 e5 ab 3e 99 05 92 be 64 fd 4c be
       0.32120085 0.33573645 -0.28519896 -0.20018536
0001a0 96 56 24 3e b5 e7 a7 be e3 d0 6e be 8a 3c 95 be
       0.16048655 -0.32793966 -0.23321871 -0.2914775
0001b0 c8 fa 3e be 87 e2 b4 3d a0 61 88 3d d3 4c 5c 3e
       -0.18650353 0.08832269 0.066592455 0.21513681
0001c0 b6 a6 80 be 74 18 c4 bc b7 35 ca 3d 73 e4 11 3e
       -0.2512719 -0.023937441 0.098735265 0.14247303
0001d0 b3 ff 4f be 66 fd 10 3d 43 c4 43 bd 9c 2c a9 3e
       -0.20312385 0.03539791 -0.04779459 0.33041847
0001e0 bf 24 06 be fa e1 43 be 0d 96 08 be de 3c fa bd
       -0.13099955 -0.19129172 -0.1333849 -0.12218641
0001f0 46 fa d1 bc f0 d5 85 3e 15 56 d2 3c 02 ca 45 3e
       -0.025632035 0.26139784 0.025675813 0.19315341
000200 65 c3 9e 3c 6d 31 54 3d d9 1d 95 3e ba 3c 93 be
       0.01938028 0.05180495 0.29124334 -0.28757268
000210 b7 87 c8 bd 9f a5 90 3e 9a 0e 8b be 56 18 b4 3e
       -0.097915106 0.2825136 -0.27159578 0.35174817
000220 82 f0 a3 be eb f1 a8 be 62 54 47 3d 7d 64 56 be
       -0.3201943 -0.3299707 0.048664458 -0.2093677
000230 78 db 0f 3d ef 5d 87 3e 58 91 8c 3e 2d 4f 40 3e
       0.03512141 0.26438853 0.27454638 0.18780203
000240 52 6b 6a be 8e f6 83 3e 02 1a 5d be 94 5b ad 3e
       -0.22892502 0.25774044 -0.21591952 0.3385893
000250 f9 36 39 be f7 54 91 bd 56 66 97 3e 09 21 93 3e
       -0.18087377 -0.07096284 0.29570264 0.2873614
000260 f0 f6 56 3e de 26 3c 3e ad 8e 9b 3e 0f 31 3a 3e
       0.20992637 0.18374202 0.3038229 0.18182777
000270 e5 8e 83 be 6d d2 aa 3e b8 db 86 be 15 1c 9e bb
       -0.25694957 0.33363667 -0.26339507 -0.004825125
000280 d7 26 67 3e bf 95 a5 be 30 85 d8 bd b8 52 49 be
       0.2257341 -0.3234081 -0.105722785 -0.19660461
000290 20 5d 3a be 62 20 dc bd 69 00 ba 3d 5d 0b 21 3e
       -0.18199587 -0.10748364 0.090821095 0.15726991
0002a0 53 3b b4 be 2a cd 26 be c3 d1 8a be 94 d6 43 3e
       -0.3520151 -0.16289201 -0.2711316 0.19124824
0002b0 f8 90 85 be a1 00 2d 3e 04 23 e0 bd 0e a5 d7 bd
       -0.26087165 0.16894771 -0.10944179 -0.105295286
0002c0 65 0b 95 be 85 7e 65 3e 39 90 3b be a9 f3 80 bc
       -0.29110256 0.22411545 -0.18316735 -0.015741186
0002d0 f0 47 8a 3e 56 4f 82 3e 11 1b 21 be 38 27 84 bd
       0.2700801 0.25451154 -0.15732981 -0.06452793
0002e0 3d 4e 95 3d a0 bd c6 bd 4b b9 93 3e 56 dc 3f 37
       0.072903134 -0.09704137 0.28852305 1.1435788e-05
0002f0 4b 4d ed 3d a1 13 04 3e 74 0b 23 3e 74 a3 b2 bd
       0.11587008 0.12898113 0.15922338 -0.087225825
000300 fc 04 80 3e 86 db 7c bd 3c 84 73 be f6 29 a3 3e
       0.25003803 -0.06173279 -0.23780912 0.3186795
000310 66 35 b7 be c2 f4 99 be 4e 95 83 be cd 67 8f be
       -0.35782927 -0.30069548 -0.25699848 -0.2800888
000320 82 0b d7 3d 96 dd 14 be 38 07 0b 3e eb 4a 1f be
       0.10500242 -0.14537653 0.13576972 -0.15555923
000330 28 8f 57 be e1 97 a1 3e 83 4b 8a 3e de e6 04 3e
       -0.21050704 0.31561187 0.27010736 0.12978694
000340 60 c5 53 3e b2 67 d6 bd f3 82 98 be 66 63 5b bb
       0.20680761 -0.10468997 -0.29787406 -0.0033475994
000350 ff bc 79 3d 22 0f 7b be db 56 1c 3e 3f 26 96 3e
       0.060971256 -0.24517491 0.15267508 0.29326054
000360 74 d1 28 3e 33 f5 36 be 6c 4b 9e 3e 0d 63 19 be
       0.1648615 -0.17866974 0.30916917 -0.14979191
000370 0d 9d 72 3e f9 69 92 bd 94 dc 8d 3e 84 16 37 bc
       0.23692723 -0.07149119 0.2770735 -0.011174802
000380 05 b1 c9 3d ef 19 f4 bd 3b 0c 03 be c8 59 b9 3c
       0.09848217 -0.11919009 -0.12797634 0.022625819
000390 f4 67 a6 3e c5 80 83 bb 85 25 a2 be 7e 1b 71 be
       0.32501185 -0.0040131533 -0.3166925 -0.23545644
0003a0 ed 58 23 be 9b 7f 3c be f0 e9 7d be e8 2e 1c be
       -0.15951891 -0.18408053 -0.24796271 -0.15252268
0003b0 af d8 9b 3c b1 6a a5 be b6 e4 c3 bb dd 15 47 be
       0.019024221 -0.32307962 -0.005978192 -0.19441934
0003c0 89 e8 81 3d 7e a6 b1 3e ce e2 99 3e a6 48 83 3e
       0.06343181 0.34697336 0.3005585 0.25641364
0003d0 41 3d ac be 5b b4 81 3e eb 07 52 be f9 f1 52 bc
       -0.33640483 0.25332913 -0.20510833 -0.012875074
0003e0 0d c4 d2 bd b2 9c af be 1d 08 b2 be 6a cb 0b be
       -0.102913 -0.34299237 -0.34771815 -0.13651815
0003f0 f6 36 9b bd 11 4d 3e bd e5 ab 26 3e ed 5d 9a be
       -0.07578842 -0.046460215 0.1627651 -0.30149785

critic.0.bias f4 [128]
000000 e7 32 5b 3e 82 28 62 3b 9b 7d 34 3e 94 2b fa 3d
       0.21406136 0.0034509008 0.1762604 0.12215343
000010 c7 83 db bb ec 0d a4 3e 83 2b a6 3e 89 7b 69 3e
       -0.0066990587 0.32041872 0.32455072 0.22801031
000020 b1 44 65 3e cc 75 df 3d 55 e5 4e be 35 fc 11 3c
       0.22389485 0.1091114 -0.2020467 0.0089102285
000030 ef a9 09 3e cb 9b 74 3e 3c 50 a6 bd 14 c3 20 bd
       0.13443731 0.23887555 -0.08120772 -0.03924854
000040 3c 44 1a 3e cf a6 16 3e 06 60 d9 bd 65 de b3 be
       0.15065092 0.1471207 -0.10614018 -0.3513061
000050 9c f4 cc 3d 8a 88 1f 3d 8a 59 3d 3e 5f 5e 89 be
       0.10007593 0.038948573 0.18491188 -0.26829812
000060 e3 0f 0e be fc 53 64 3e 9c 97 86 3d ca b5 5e 3e
       -0.13873248 0.22297662 0.06571886 0.21749035
000070 43 6f a2 be fa 98 71 3d 2a 14 a7 3e 1a 24 2d 3e
       -0.3172551 0.05898378 0.3263257 0.16908303
000080 e6 ec a3 3e d6 54 f6 bd ce b9 87 3e 82 95 25 3c
       0.32016677 -0.120279 0.26508945 0.010106446
000090 72 57 06 3d d3 eb f6 3c 7b c0 5b bd 3a 6e b3 3e
       0.032798238 0.030141747 -0.05365036 0.35045034
0000a0 75 ab 96 be 9d ae 93 3e 19 4c 97 be 96 e5 bd 3c
       -0.29427686 0.28844157 -0.29550245 0.023180764
0000b0 83 c3 8d be f5 69 81 bd 8c d6 8e 3e ca ae 98 3d
       -0.27688226 -0.06319038 0.2789806 0.07455213
0000c0 96 46 f3 bd 44 11 db bd ab 45 62 3e b0 6f a9 be
       -0.118786976 -0.106966525 0.22096889 -0.33093023
0000d0 2c 66 bb 3d 17 f8 b0 3e 23 fb 69 be 77 4b d5 bd
       0.09150347 0.34564278 -0.22849707 -0.104147844
0000e0 2a 14 a0 3e 31 7d 7f 3c 7b a3 9c 3e 7a 10 8e 3e
       0.31265384 0.015593813 0.30593476 0.27746946
0000f0 c7 a8 23 be fc 2e a8 3e 50 3c b2 be 98 cc a3 be
       -0.15982352 0.32848346 -0.3481164 -0.3199203
000100 4b 29 68 3e 47 77 7b 3e 4b 83 36 3d f5 d4 3f 3e
       0.22672002 0.2455722 0.044558804 0.1873358
000110 b0 c2 1c 3d 08 5b 8e be 74 67 92 be d5 42 96 be
       0.038271606 -0.27803826 -0.28594553 -0.29347864
000120 e0 04 f9 3c eb 72 0a 3e 1a 03 a7 be 4d 81 52 3d
       0.030397832 0.135204 -0.32619554 0.051392842
000130 48 18 4d be 25 05 9a 3e ad 8b 38 3e 37 ec 7b bd
       -0.20028794 0.3008205 0.18022032 -0.06150457
000140 cf 23 96 3e 90 93 a2 3e 25 21 0d be 9f 74 24 3c
       0.29324195 0.31753206 -0.13782175 0.01003757
000150 1d 1a a8 3e d7 e1 75 be 59 17 f7 bd c9 ae b1 3e
       0.32832423 -0.24011932 -0.12065 0.34703663
000160 5d 3b 90 3e 24 12 bd bc 49 dd e6 bb 77 8d 55 be
       0.2817029 -0.02307994 -0.007045422 -0.20854746
000170 9d e7 a1 3e d3 a2 15 bd 11 51 2a be 6c fe b9 bd
       0.3162202 -0.036532234 -0.16632487 -0.0908173
000180 83 c1 09 be 8b c8 45 3e af 51 18 be 2f 62 a5 3e
       -0.13452725 0.19314782 -0.1487491 0.3230147
000190 d4 25 98 be a5 a9 5a 3e 54 96 b2 3c e5 9b d0 3d
       -0.2971636 0.21353777 0.021800198 0.101859845
0001a0 f4 af 12 be 33 6b 90 3e 4e 67 c8 3d a5 25 84 3e
       -0.14324933 0.28206787 0.09785329 0.2580997
0001b0 8c 08 5c 3e 74 a1 ab bd f5 ff 89 be 93 13 a2 be
       0.21487635 -0.08380404 -0.26953092 -0.3165556
0001c0 5c 42 9c be eb ea 80 3e 8c a7 e3 bd dc c3 a8 3e
       -0.30519378 0.25179228 -0.111159414 0.3296193
0001d0 d0 a1 80 3d 0c fc 16 be ea 81 8a 3d 3f bd 8b 3d
       0.06280863 -0.14744586 0.067630604 0.06823205
0001e0 6c 81 3f be 7c 84 34 3e 6b 6b 4d 3d fe 7e 31 3e
       -0.18701714 0.17628664 0.05015127 0.173336
0001f0 73 98 39 3d 6f 09 80 bc 6c 88 a8 bc 5d 6c 36 be
       0.045311403 -0.015629498 -0.020572864 -0.17814775

critic.2.weight f4 [64, 128]
000000 96 d0 54 3d 62 79 5e 3d 4a 3d 3b 3c 46 48 6f 3d
       0.051956736 0.05431498 0.011428187 0.058418535
000010 69 9f 82 bd ac 98 b2 bd 9c a5 6c bd 05 8e 31 bd
       -0.06378061 -0.08720526 -0.057775125 -0.04334833
000020 a8 47 8e 3d 01 6e 44 bd de a1 4f bd ee 07 20 bd
       0.06947261 -0.04795647 -0.050691478 -0.039070062
000030 9e b0 2e 3d fb f4 55 3d 53 1e 95 bb 8f 30 83 bc
       0.042648904 0.052235585 -0.004550734 -0.016014365
000040 a0 4c 1a 3d d0 ec 8d 3d 39 5e 71 3d d1 e2 99 3d
       0.03767073 0.06929934 0.05892775 0.07513965
000050 01 65 41 3d 89 41 7a 3d 41 9a 43 3d 2a 55 c2 3c
       0.047215465 0.061097655 0.04775453 0.02372225
000060 c6 14 5c bd dd 62 a1 bd 8d 3f 90 3c de 38 91 bd
       -0.05373075 -0.07880185 0.017608428 -0.07090925
000070 ad c8 19 bc 7b ad 51 bc 6a 66 a4 bd c1 d7 9d bd
       -0.009386224 -0.012797709 -0.080273464 -0.077071674
000080 f8 62 96 3d de 4e 75 bb 87 a8 43 3b b2 01 68 3d
       0.073430955 -0.0037431042 0.0029855089 0.05664224
000090 cd 71 80 bc 88 cb 5d bc cf 0c 62 3d f6 e7 88 bd
       -0.015679264 -0.013537295 0.055187996 -0.06684868
0000a0 2f bb 91 bc 22 61 02 bd 9c 70 91 3d e2 29 84 3b
       -0.017789451 -0.031830914 0.07101557 0.004033313
0000b0 0c df 99 bc c5 23 79 3d f6 74 8c 3d 30 ff dc bc
       -0.018783115 0.060825128 0.06858246 -0.026977152
0000c0 84 e8 93 3d 28 26 2e 3d d5 7f f5 bc 86 bd b0 bd
       0.07222083 0.042516857 -0.029968182 -0.08629899
0000d0 cd 9a 18 3d 8e 42 83 bd 76 3e 4e 3c c8 22 51 bc
       0.037257005 -0.06409179 0.012588134 -0.01276464
0000e0 54 aa a4 3c 07 f9 18 bd bb ca 03 3d 9a e4 81 3d
       0.02010075 -0.037346866 0.03217576 0.063424304
0000f0 0e 88 5a 3d 36 59 57 bd 75 01 84 3b a8 3e 84 3c
       0.053352408 -0.052575313 0.004028494 0.016143158
000100 97 e5 5c bc d0 95 ec bc c9 ae 8d bd 2a b1 45 3d
       -0.013482473 -0.02888003 -0.06918103 0.04826466
000110 44 b8 98 3d be 18 ab 3d 90 ab 45 bd da 13 a6 bd
       0.07457021 0.083543286 -0.048259318 -0.08109255
000120 f2 f3 83 bd 94 45 33 bd ab 73 98 3d 7c 42 47 3d
       -0.06443013 -0.043767527 0.07443937 0.04864739
000130 22 3e b1 3c 54 a9 98 bc 68 76 9e bc 61 2a 7b 3c
       0.021636073 -0.01863543 -0.01934357 0.015329928
000140 e8 78 5c bc 2d 8e aa 3d c5 92 4b bd 15 0b 55 bd
       -0.013456561 0.08327899 -0.049700517 -0.05201252
000150 9d 82 9e 3b de fe 8f 3d 05 e2 b3 3d b5 db f2 bc
       0.0048373477 0.07031034 0.08783344 -0.02964578
000160 5d eb f8 3c 95 ad 74 3d f4 06 96 bd c6 aa a9 bd
       0.030385667 0.059735853 -0.07325545 -0.082845256
000170 c1 77 78 bc 93 f1 9d 3d 23 0a 98 bd 77 f3 2a bd
       -0.01516527 0.07712092 -0.074238084 -0.041736092
000180 5d 04 51 bd 63 d1 ab 3d ce a4 8c bd fa 59 a0 3d
       -0.05102955 0.08389547 -0.068673715 0.07829662
000190 6f 9d 82 bd 8a c6 fb 3b 25 61 a0 bd 51 93 fd 3c
       -0.06377684 0.00768358 -0.07831029 0.030954035
0001a0 90 f6 43 bc 25 f6 b4 bd 3a 7a a9 bd c5 18 6f 3d
       -0.011960641 -0.08836011 -0.08275266 0.05837323
0001b0 97 4e e3 bc 43 16 43 bd c1 5b b5 3b 4e 9d 90 3d
       -0.027747435 -0.047628652 0.0055346196 0.070612535
0001c0 e5 d2 7d 3d c1 4c 3c 3d 88 a9 12 bd a7 66 c3 bc
       0.061968703 0.045971636 -0.03580621 -0.02385266
0001d0 69 61 97 bc 0c 24 e2 bc ce 74 98 bd ed 46 8b bd
       -0.018479066 -0.02760508 -0.07444154 -0.068006374
0001e0 4a 79 19 bd 87 1f 92 3d 38 af 10 3d 2c 93 d5 bc
       -0.037469186 0.071349196 0.03532335 -0.026071154
0001f0 52 0f 87 3c 27 68 75 3d 05 5b 57 3d 5f 3f 1b bd
       0.016486797 0.05991378 0.052577037 -0.037902232
000200 49 53 73 bd 42 e6 84 bd e2 99 4a bd c4 e4 04 3d
       -0.0594056 -0.06489231 -0.04946316 0.03244473
000210 44 63 28 3d 35 78 ad bd 68 00 46 bd 36 c1 2d bd
       0.041110292 -0.08470193 -0.04834023 -0.04242059
000220 c2 2a 57 bd 39 69 11 bd 7e 23 ae bb 0b 80 80 3d
       -0.05253101 -0.03550074 -0.0053142896 0.06274422
000230 46 cc b0 3d 8f c0 a7 3d 6b 2c 5c bd be f9 73 bd
       0.08632712 0.081910245 -0.053753298 -0.059564345
000240 d4 a1 a8 bd d7 f8 c5 3c dc 6f 1a bc 0d ba 59 bd
       -0.08233991 0.024166508 -0.009426083 -0.053155947
000250 36 43 45 3d 1d 45 8e 3b ca cb 31 bc 82 d2 17 3d
       0.0481598 0.004341735 -0.01085181 0.03706599
000260 b9 7d 3c bd 6a 25 5d bd 4c 94 0e 3b 7c c1 db 3c
       -0.046018336 -0.05399076 0.0021755872 0.026825659
000270 44 6b 66 bd 6f 66 8d bc 1a 45 e0 b9 04 2a 23 bc
       -0.05625464 -0.017260758 -0.00042776094 -0.009958748
000280 55 60 92 3d 96 38 b2 bd c6 6b 2e 3d ac 81 a8 bd
       0.0714728 -0.08702199 0.04258325 -0.08227858
000290 98 d5 9c bc 05 7e c4 3b 94 5a 95 bc 01 82 1b bd
       -0.019144818 0.005996468 -0.018231668 -0.03796578
0002a0 fa 43 b6 3d 19 e4 b1 bd d5 8d b6 3c cb 16 a6 bd
       0.08899684 -0.08686084 0.022284428 -0.08109816
0002b0 6f 0d 61 3d fa 94 53 bc de b7 a9 3d f0 cb 84 bd
       0.054944452 -0.012913937 0.08287023 -0.064842105
0002c0 81 95 83 bc d8 a0 be ba d6 b0 a1 3d 5f e9 99 bc
       -0.0160625 -0.0014543785 0.07895057 -0.018788038
0002d0 7a d7 c3 3c c8 e6 af bd c4 e3 a9 3c 01 43 29 bd
       0.023906458 -0.0858894 0.02073849 -0.041323666
0002e0 54 f6 6f 3d 9a ea 84 3d 5b 13 e5 bc 0b 2c d1 bc
       0.058584526 0.06490059 -0.027963331 -0.025533697
0002f0 27 18 ac 3c cf 42 88 3c 30 05 ad 3c aa cb b2 3d
       0.02100761 0.01663342 0.021120638 0.08730252
000300 46 8f ac bd 1a ad e3 3c 19 71 77 3d 71 7b aa bd
       -0.08425765 0.027792502 0.060410593 -0.08324326
000310 34 e9 06 3d 16 5e 43 bd a9 28 c8 3c 0c eb 3f 3d
       0.032937244 -0.04769715 0.02443345 0.046855018
000320 11 d9 9f 3d d8 97 68 bd bc c0 04 bd 73 83 00 3c
       0.07805074 -0.056785434 -0.03241037 0.00784384
000330 47 74 b8 3d 47 f8 47 3d 16 15 a7 bd d3 5f 43 3b
       0.09006553 0.04882076 -0.08158319 0.0029811754
000340 bd 3b 23 3d 75 e8 8c 3c 84 3d 31 3d 8c 30 73 bd
       0.039851893 0.017200688 0.043271556 -0.05937247
000350 6e 87 57 3d 74 e0 15 3d 4c f8 6d 3d 49 b8 8f 3d
       0.05261939 0.03659101 0.058098122 0.070175715
000360 a6 62 48 bc 06 30 b1 bd c8 d5 4a 3c be bd 43 bd
       -0.012230551 -0.08651738 0.012380071 -0.047788374
000370 df fd ff 3c af e3 2b 3d f8 5a b1 3d a2 ed 96 bd
       0.031248985 0.041965183 0.08659929 -0.073695436
000380 53 8d b7 3d 31 00 5a bd 6e 67 84 bd e6 45 ae bd
       0.08962502 -0.05322284 -0.0646504 -0.08509426
000390 ae 46 51 3d 05 01 63 bc 0b 28 9e 3d c0 6f 30 3d
       0.051092796 -0.013855224 0.07722481 0.043075323
0003a0 0a a5 e8 bc 6e 0e 0e bd 16 76 87 3d 48 44 9a 3d
       -0.02839901 -0.03468173 0.0661432 0.07532555
0003b0 78 34 3b bd f5 f2 8b 3d 58 7b 9c bd 53 57 4b 3d
       -0.045704335 0.0683345 -0.076407135 0.049643826
0003c0 59 0d 64 3d 28 74 14 3d 24 c7 7e bd b2 09 d6 3b
       0.05567679 0.036243588 -0.062201634 0.0065319175
0003d0 d6 33 9f 3d a6 c8 e1 3b 03 db 55 3c fe 2d 96 3d
       0.07773559 0.0068903742 0.013052705 0.07332991
0003e0 d4 47 63 bd 1b 5c a3 bd 07 02 72 ba e5 9c a3 bc
       -0.055488423 -0.07976552 -0.00092318695 -0.019972274
0003f0 5e 49 94 3d 36 46 9f 3d 8e 5e 30 3d 1c 0c 52 3c
       0.07240556 0.077770635 0.043058924 0.01282027

critic.2.bias f4 [64]
000000 5a 3c 34 bd 13 71 a3 bc 4c 58 97 bd c2 b1 b2 3d
       -0.04400287 -0.019951379 -0.07389888 0.08725311
000010 68 ab a7 bd f4 e8 24 3d 31 c8 03 bd e5 8c 6b bc
       -0.0818699 0.040261224 -0.03217334 -0.014376854
000020 38 97 cd bc 8a 12 fb bb 70 04 1e bd 20 36 54 3d
       -0.02509652 -0.007662122 -0.03857845 0.05180943
000030 4d cc 9c bc 5e ce a4 3d 3d eb c0 ba 68 9c 38 3d
       -0.019140387 0.08047174 -0.0014718544 0.045071036
000040 a6 b3 a1 3d 97 21 86 3d bc 6f 56 bd 5b af 5a 3d
       0.07895593 0.065493755 -0.052352652 0.05338989
000050 ea 7f 31 bd f0 06 bb 3b fc 3a 15 3c 8c 15 60 3d
       -0.04333488 0.005707614 0.009108301 0.05470805
000060 30 38 ed 3c 64 f3 75 3d 1a c6 3a bd b8 71 a7 3d
       0.028957456 0.06004657 -0.04559908 0.08175987
000070 3b de 32 3d ad 11 6c 3d 0d 91 ef 3c ec c3 f2 3c
       0.043668967 0.057634044 0.02924397 0.029634438
000080 c3 9d 26 3b 56 56 55 3d 42 29 06 bc 93 6d 2f bd
       0.0025423623 0.05208429 -0.008188548 -0.042829107
000090 46 54 78 3c 19 cb ad bb c9 b6 5b bd 84 d7 6a bc
       0.015156811 -0.005303752 -0.053641114 -0.0143336095
0000a0 ae 76 99 bd 85 99 3e bd 22 5d 75 bc 84 3f 9f 3d
       -0.074933395 -0.046533126 -0.014975818 0.077757865
0000b0 7f 2e 76 3d d8 cf 94 3d 3f 02 50 3c 25 ea 63 bd
       0.060102936 0.072662055 0.012695848 -0.05564322
0000c0 44 e2 ab 3d c7 94 a5 3c 4c cf b1 3d 05 a2 41 3d
       0.08392766 0.020212544 0.08682117 0.047273654
0000d0 56 d1 49 3c a7 71 1a bd 9f 15 08 3c b5 73 ae 3c
       0.012317976 -0.037706044 0.008305936 0.021295408
0000e0 f4 73 9d bd 67 58 c9 3c 36 05 1c bc 00 31 27 bd
       -0.07688132 0.024578286 -0.009522727 -0.040818214
0000f0 13 b6 95 bd 6f f9 27 3d 05 d7 03 3b d5 ab a3 3d
       -0.073101185 0.041009363 0.0020117175 0.07991759

critic.4.weight f4 [1, 64]
000000 1c 75 0d 3d b6 2c d6 3c e8 7c 8a bd c1 15 8b 3d
       0.034535512 0.026144367 -0.06762105 0.067912586
000010 dd 1d 17 bd 81 a8 54 bc a8 27 d0 3d db b0 90 3d
       -0.036893714 -0.012979628 0.10163814 0.070649825
000020 7f 37 6d 3d 38 c3 81 bd b8 db f3 bd 86 19 61 3c
       0.057914253 -0.06336063 -0.119071424 0.013738995
000030 76 1b ae 3c 57 b4 a1 3d 59 47 9a bd 4f b9 67 3d
       0.021253329 0.07895725 -0.0753314 0.05657321
000040 d2 b4 86 3d c6 c0 3f bd 9a c1 db 3d eb 59 aa 3c
       0.065774575 -0.046814702 0.10730286 0.02079483
000050 3c df 31 3d 0e 55 43 bd a6 9b 3f bc 7e da e7 3c
       0.043425784 -0.047688536 -0.011694824 0.028302427
000060 df 4e e7 3d 52 a9 88 3c 75 e4 8e bd f2 82 e4 3d
       0.1129434 0.0166823 -0.069771685 0.11157788
000070 11 25 ec bd 84 da 0e 3d ba 39 bd 3d 8d f6 95 bc
       -0.11530507 0.03487636 0.09239526 -0.018306041
000080 c3 a7 a4 3d f5 94 ab 3d d8 ff 59 bd 4b 33 da bd
       0.080398105 0.08378021 -0.053222507 -0.106543146
000090 ed 2c c1 bd 45 6d 38 3d 92 6a cc bd 59 3e 65 bd
       -0.09432397 0.045026083 -0.09981264 -0.055967662
0000a0 55 54 2f bd 3c aa b8 bc 7e e3 26 bd a6 aa 84 3d
       -0.042805035 -0.022542112 -0.040744297 0.06477861
0000b0 17 7e 0d 3c 7a bd 18 bd 4e 2a 78 3c b9 4a d3 bd
       0.008636019 -0.037290074 0.015146805 -0.103169866
0000c0 e7 bb c7 3d 40 89 1f bd e6 8d 7d bc a9 84 07 bd
       0.097526364 -0.03894925 -0.015475726 -0.0330855
0000d0 00 a4 aa bd fc cb 87 bc 8c 86 d6 bd ef b9 a4 3d
       -0.08332062 -0.01657676 -0.104748815 0.080432765
0000e0 18 70 7f bd 99 83 a0 3c 17 09 8b 3d 3b 50 93 3d
       -0.06236276 0.019594 0.06788843 0.07193037
0000f0 10 55 d0 bd e2 a4 b3 3d 98 56 ce 3b 72 24 ea 3d
       -0.101724744 0.08771683 0.006296944 0.11432733
